Ex3/peter/test/results/model.pth (torch_old, 88700 bytes, 8 tensors)

conv1.weight f4 [10, 1, 5, 5]
000000 fa 0f d6 3b 59 70 8d 3d 79 09 94 3e 1f b8 96 3e
       0.0065326663 0.06906194 0.28913477 0.29437348
000010 a4 5c 33 3c 8e eb 9f bd 83 3b 82 bd b6 ec 79 3e
       0.01094738 -0.078086 -0.06359007 0.24406704
000020 e2 e3 8f 3e 77 17 e9 bd eb 33 28 3e 85 6b b9 3e
       0.28103548 -0.11381429 0.16426055 0.36214843
000030 5f 83 15 3e 7d 4a 78 bd a8 df f7 3c 12 bc 14 3e
       0.14600895 -0.060617913 0.030258015 0.14524868
000040 dc db 0b 3e 7c a4 a6 3e be 3e 5a 3e 1a 3b 16 3d
       0.13658088 0.32547367 0.21312997 0.036677457
000050 ee 51 49 3e b8 aa 03 3e 12 d7 ce 3d ad dd e1 bd
       0.1966016 0.12858093 0.10099615 -0.110286094
000060 0c 92 4b bd 81 76 2f be 88 e9 a0 3d 23 0d 1a 3d
       -0.049699828 -0.1713505 0.078570426 0.037610184
000070 00 17 f6 bd 6e 22 2f bd 4e 03 d0 bd 87 c1 3b be
       -0.12016106 -0.042757444 -0.1015688 -0.18335544
000080 3e f6 34 bd c5 bf 9e be 8d 95 cc bd 6d 3c 49 3e
       -0.044180147 -0.31005684 -0.09989462 0.19651957
000090 5c ec 7a bc b1 9f ee bd 79 40 e9 3d 96 13 ce 3b
       -0.0153151415 -0.116515525 0.1138925 0.006288956
0000a0 95 3a 8e 3e f4 dc f7 3d b9 a4 a4 bd 84 be 50 3e
       0.2777907 0.1210269 -0.08039231 0.20385176
0000b0 c0 24 85 3e b8 47 31 3e 83 4d 50 3e ac af 5c 3e
       0.260046 0.17312515 0.20342068 0.21551389
0000c0 ae ae bd ba 14 b9 fa b9 cc 20 1e be f0 ae ec 3d
       -0.0014471614 -0.0004782161 -0.15442199 0.11556804
0000d0 82 83 9c 3d 7d 23 0c 3e 53 80 27 be 2a 42 aa bc
       0.076422706 0.13685413 -0.16357546 -0.020783503
0000e0 e5 e7 91 3c 58 d9 98 bd db 14 34 3e 79 ca a8 bd
       0.017810771 -0.0746333 0.1758608 -0.082417436
0000f0 53 80 41 be 4b a6 0c be 23 4d e9 bd bd 5a 28 3e
       -0.18896608 -0.1373531 -0.11391666 0.16440864
000100 c4 19 2b 3d e7 40 2e 3e a5 0f 89 3c 8a 5c 19 3e
       0.04177262 0.17016946 0.016731093 0.14976707
000110 60 d3 11 bd 39 87 8c 3e 96 9f 6d 3d 4d 5b 40 be
       -0.035601974 0.27446917 0.05801352 -0.18784828
000120 f1 dd a6 bd 82 ae 63 bd 6f 7e 49 3d e4 2b 99 3e
       -0.08147801 -0.055586345 0.049192842 0.29916298
000130 3b de a9 3e c1 18 d5 3e 74 f0 af 3d c0 5c a5 3e
       0.3317736 0.41620448 0.08590785 0.32297325
000140 09 ad 82 3e 12 1a 8f 3e 10 19 2b 3e 25 aa 41 3e
       0.2552264 0.27949578 0.1670878 0.18912561
000150 89 10 ee 3c e7 af 52 3d 86 ad 1e be 4e 26 e2 bd
       0.029060619 0.051437285 -0.15495881 -0.11042462
000160 3f 3f 87 bd 1d 03 18 3e e6 ea 86 bd 26 8e 60 be
       -0.0660386 0.14844938 -0.06587772 -0.21929225
000170 07 02 3b bd 2c f5 c1 bd 9f 8e 27 be ec 3c 92 be
       -0.04565623 -0.09470591 -0.16363 -0.28562105
000180 ac b3 6e be 02 bc 6d be 31 5d c4 bd 1d 49 28 3d
       -0.23310727 -0.2321625 -0.09588087 0.04108535
000190 19 17 80 3e 66 1e 9a 3d 57 b1 90 3e 96 21 8d 3e
       0.25017622 0.07525329 0.282603 0.27564687
0001a0 1f 95 87 3e 15 88 20 3e 0f b7 cb 3a f8 d8 6f 3e
       0.26480958 0.15676911 0.0015542227 0.23422611
0001b0 1d 2d a7 3c 1b 6c b7 3e 07 42 4d 3e 0d f1 d2 3d
       0.020407254 0.35824665 0.20044719 0.10299883
0001c0 62 31 22 3d e0 5d df bc 43 2b 8a 3e be f9 37 be
       0.039597876 -0.027266443 0.2698613 -0.17966363
0001d0 fb bc 55 bd 13 27 80 3c c7 13 ef 3c c7 1a d4 3c
       -0.05218218 0.015643632 0.029184235 0.025891675
0001e0 7e 22 74 be 4b f1 75 3d 0d 55 cf bd 14 58 3a 3e
       -0.23841283 0.060044568 -0.10123644 0.18197662
0001f0 dc 89 7b 3e 52 92 0d 3e 53 6c b3 3e f5 00 d8 3d
       0.24564308 0.13825348 0.35043582 0.105470575
000200 b9 b8 70 3e 50 f2 50 be c3 84 92 3e 50 81 2e 3e
       0.23507966 -0.20404935 0.28616914 0.17041516
000210 6a ee 58 bb 96 bd 10 bd c8 fc 95 be 3f ab 0c ba
       -0.003310109 -0.035337053 -0.2929442 -0.0005366094
000220 12 0a c2 3e d7 27 97 3e 5a 75 31 3c 02 39 c1 be
       0.37898308 0.29522583 0.010831201 -0.37738806
000230 6d 28 83 3e 42 c5 c0 3e de e8 da 3d 18 d2 c0 bd
       0.2561678 0.37650496 0.10688947 -0.09415072
000240 0a 93 1c be d3 23 28 3e 74 b6 78 3e fd 44 9b bd
       -0.15290466 0.16419916 0.2428835 -0.07581518
000250 d6 ab e0 bd a9 52 8d be 38 0e 64 3e ed 21 bf 3e
       -0.10970275 -0.27602127 0.22271049 0.3733057
000260 f6 a7 f8 3e 32 b5 cf 3e b9 1e b6 3e 4f 42 78 3d
       0.48565644 0.4056793 0.35570315 0.06061011
000270 33 9b 0d be 9c d3 8c bd 75 3d 33 bd f9 c6 80 3e
       -0.13828735 -0.06876299 -0.043759782 0.25151804
000280 57 b0 9b be 3e a3 15 be b2 a8 ab be 28 b0 3f be
       -0.30407974 -0.14613053 -0.33527142 -0.18719542
000290 3d 80 58 be b8 f1 77 be 71 38 12 be 3d 65 f2 bd
       -0.21142669 -0.24213302 -0.14279343 -0.11835716
0002a0 93 00 1a be ad 25 81 3c 97 28 fa 3d de 0a a4 bd
       -0.15039282 0.015765036 0.12214773 -0.08009885
0002b0 57 31 e6 3d 4b 19 94 bd 16 95 40 be 1c 13 5f be
       0.112398796 -0.07231387 -0.18806872 -0.21784633
0002c0 b8 8b 3a 3d fe 80 69 be 8e 1a 11 bd 70 df 24 3d
       0.045543402 -0.22803113 -0.035425715 0.04025215
0002d0 d7 4f 6c be b5 5a dc bb a7 3b 05 be ff 46 ff bd
       -0.23077331 -0.0067246803 -0.13011037 -0.12464713
0002e0 49 e0 5d 3d 36 fb 46 3e 70 e0 9e 3e f8 16 99 3e
       0.054168973 0.19431767 0.31030607 0.29900336
0002f0 15 66 3c 3e 5e ad 37 3e e0 36 89 3d 99 28 a8 3e
       0.18398316 0.17937228 0.0669992 0.32843474
000300 05 2b 52 bd 09 e5 6d 3e a1 73 f0 bb 11 97 55 3e
       -0.051310558 0.23231901 -0.007338003 0.20858409
000310 05 63 3d be 73 6e 0f 3e 84 ba 04 ba fb 11 1a be
       -0.18494804 0.14006977 -0.00050631934 -0.15045922
000320 ad 02 85 3e e8 0c a4 3e 71 46 72 3e 92 05 6f be
       0.25978604 0.32041097 0.23659684 -0.23341969
000330 ec 59 6f be ff fd fd 3c 46 e6 af bd 67 b7 57 3e
       -0.23374146 0.031004904 -0.08588843 0.21066056
000340 34 ed 03 3e 9e 5c b8 3d f8 b9 88 bd 5d c8 5d 3e
       0.12883455 0.0900204 -0.06676096 0.21658464
000350 46 e7 fc 3b 9d eb 8e 3d 75 13 01 3e 5f 1a 38 be
       0.0077179996 0.069785334 0.12605079 -0.1797881
000360 80 47 6a bb 0b 90 a5 3e 55 ff 62 3e 57 96 94 3e
       -0.0035748184 0.3233646 0.22167714 0.2902095
000370 78 8f 35 bc 35 a1 4f 3e e6 61 13 3e 55 be a8 3e
       -0.011081569 0.2027634 0.14392814 0.32957712
000380 50 23 7d 3e 8a 99 6b be ba 7f 08 3e 14 a7 08 3d
       0.24720502 -0.23007789 0.13329974 0.033362463
000390 90 b9 33 3e fa 02 23 3d 83 5d 0d be 58 38 0d be
       0.17551255 0.03979776 -0.13805203 -0.13791025
0003a0 70 45 9d bd f7 46 3c 3e 0d 42 0d 3e 87 2e 6d bd
       -0.0767926 0.18386446 0.13794728 -0.0579057
0003b0 54 70 44 3d 32 2e d0 3d 74 b7 7b bc 39 cb 1b be
       0.047958687 0.10165061 -0.015363563 -0.15214242
0003c0 96 dd 8a 3b 5a 65 68 bc e4 cd 30 3e 6f 9f 4f 3e
       0.004237841 -0.01418432 0.17266041 0.20275663
0003d0 90 30 18 be 0f 91 99 3d 7e 71 fc 3d f9 e5 29 3c
       -0.14862275 0.07498371 0.123263344 0.010369771
0003e0 26 44 99 3e 7e 63 00 3e
       0.29934806 0.12537953

conv1.bias f4 [10]
000000 38 ea 4f 3e ee 27 86 3e 39 89 40 bd e3 7e 79 3d
       0.20304191 0.2620234 -0.047005866 0.060912024
000010 0a e9 b5 bd 88 5e 79 3d 85 d9 1a 3c c4 c7 75 3c
       -0.08882339 0.060881168 0.009451275 0.015001241
000020 ea cd 3f bb 44 62 82 bd
       -0.0029267021 -0.06366399

conv2.weight f4 [20, 10, 5, 5]
000000 79 5f 88 3d 3e 6c 0e bd c8 fa 71 bc 1e 3d 8b 3d
       0.06658835 -0.034771197 -0.014769264 0.067987666
000010 f3 f6 b5 bb c0 53 02 3d b3 e5 15 3d e0 2f 1b 3d
       -0.0055531203 0.03181815 0.03659601 0.037887454
000020 be d2 fa bc 02 6a ff bd 92 b0 44 bd 49 36 cc 3c
       -0.030618068 -0.12471391 -0.048019953 0.024928229
000030 da 14 a9 bd 2e 6f 02 bd 9a dc 93 bd 27 65 a5 3c
       -0.0825593 -0.03184431 -0.07219811 0.020189835
000040 4b a7 01 3d 36 17 a1 3c b2 20 5a bd 9a b9 95 3b
       0.031653684 0.019664388 -0.053253837 0.0045692446
000050 57 75 8c 3b 36 4f 1b bd 86 18 72 bd 49 a7 1d 3d
       0.004286449 -0.03791734 -0.05910542 0.038489614
000060 d2 b1 c0 bc 48 5f 0d 3c 0f d4 ac bc 0b 08 1f bd
       -0.023522291 0.008628674 -0.021097211 -0.03882603
000070 df ff 51 bd 66 3c 32 bd 3d 78 13 3c 16 94 9b 3d
       -0.05126941 -0.04351463 0.009000835 0.075966045
000080 f7 36 61 3c 42 36 ed bc 42 e9 2e bd 5d f2 05 3d
       0.013746015 -0.028956536 -0.04270292 0.03270184
000090 2c ff 53 3c 59 d9 ce 3d 16 26 e3 3c 03 fa 5a 3d
       0.012939256 0.101000495 0.027728122 0.053461086
0000a0 4d 62 70 bd 39 22 57 3c 33 77 26 3d bc 5e dd 3d
       -0.058687497 0.013130718 0.04064102 0.10809085
0000b0 14 ad c2 3d 12 22 58 bd a9 6d c1 3c 06 35 72 bd
       0.09505668 -0.052766867 0.02361186 -0.0591326
0000c0 00 77 2d bd da f7 6a bd 0f 47 48 3d 0c 9e b9 3c
       -0.042349815 -0.057365276 0.04889589 0.02265837
0000d0 75 51 80 bc 2b 68 b5 bc e0 2c e1 3c f6 30 17 bd
       -0.015663842 -0.022144398 0.027487218 -0.036911927
0000e0 c5 5a 44 3d 87 e4 9b 3c 6d 19 da bc fc 79 4a bc
       0.047938127 0.019029869 -0.026623452 -0.012358185
0000f0 ef 04 ee bc 92 4e 8a 3d 50 34 76 bc 4d 98 0e bd
       -0.029055087 0.06753267 -0.015027121 -0.034813214
000100 95 20 20 3d 65 1c 8d 3d 9c a9 a1 3d 91 93 5b 3c
       0.039093573 0.068901815 0.078936785 0.013401882
000110 02 5e 37 3d b6 16 87 3c 34 35 1f 3d 94 83 0e ba
       0.044767387 0.016490322 0.038869098 -0.0005436477
000120 08 8c 72 3d d7 42 1c 3d 3a ac b9 3c d2 11 c8 bd
       0.059215575 0.03814968 0.022665132 -0.09769024
000130 34 32 4b bd fb 6c b0 bc e7 73 25 3d 57 2a c3 3c
       -0.049608424 -0.021536341 0.040393736 0.0238239
000140 9c 15 12 bd f0 ea 13 bd 67 e5 47 bd 8b af 0e 3d
       -0.03566514 -0.036112726 -0.04880276 0.03483538
000150 26 d9 0f 3d 19 f8 33 3d 7b 9e 1d 3d d6 b0 eb ba
       0.0351192 0.043937776 0.038481217 -0.0017981778
000160 e4 bb 5a bd 2d 0f c3 3b cd 5e 23 bd 58 2e d6 3c
       -0.053401843 0.005952737 -0.03988533 0.026145145
000170 dc 36 81 bc 33 b9 63 3d cb 9c 17 3d 82 4c 0f bc
       -0.01577323 0.05559654 0.037014764 -0.008746268
000180 aa 24 b0 bc f9 8b b6 3d 37 1d fa 3d 23 cf b8 3c
       -0.021501858 0.089134164 0.122126035 0.022559708
000190 0f 24 6d bc d2 92 b4 bd 16 c2 9a ba f9 74 13 3d
       -0.014473929 -0.08817066 -0.001180711 0.036000226
0001a0 56 76 a2 3c 0e 37 1c 3d 88 c4 ad 3c 9a d3 95 bc
       0.019831818 0.03813844 0.021211877 -0.018289376
0001b0 42 2b 92 3d c7 8a 9a 3b 3b b7 49 3d 86 5d d7 bb
       0.07137157 0.0047162506 0.049247008 -0.006572428
0001c0 f3 dd 27 3d 43 62 20 bd d6 d9 2d bd 67 88 86 3d
       0.04098315 -0.03915621 -0.042444073 0.065689854
0001d0 c1 f6 a5 3d c5 9d 6b 3c 97 17 72 3d f8 6e 95 bd
       0.08103705 0.014380877 0.05910453 -0.07296556
0001e0 31 09 19 bc f2 d8 b2 3c bf 40 e7 3d a0 f5 72 3d
       -0.00934057 0.021831963 0.11291646 0.059316278
0001f0 3f ab 2a 3c f1 c0 6c 3c 4f fc e6 bc c8 11 c1 3c
       0.010416805 0.014450298 -0.028196482 0.02356805
000200 11 c7 1b bd 80 58 58 3d 8e 9d ed 3d ed 24 de bc
       -0.03803164 0.052818775 0.11602317 -0.027117217
000210 39 e3 47 bd 11 6a f7 bd ee 83 c5 bd e4 6f d7 bb
       -0.04880068 -0.120807774 -0.09644304 -0.0065746177
000220 19 c1 ed 37 8d bb 51 bd 36 4c 92 bd 9d 10 04 bd
       2.834252e-05 -0.051204253 -0.07143442 -0.032242406
000230 96 7c 5e 3c cd 48 61 bc 6c f0 ab bc ae d1 6a 3c
       0.013579508 -0.013750267 -0.020988666 0.014332218
000240 4e e1 ab 3c bf 1e aa bc 85 8a d6 bd 5d 13 62 3b
       0.020981457 -0.020766614 -0.10475639 0.0034496405
000250 f2 1e 67 3c 1c fc 41 bd af 0e e4 bd de 38 59 bd
       0.014106499 -0.04735957 -0.11135613 -0.05303275
000260 24 9d 8c bd ad f8 80 bc cd c2 2a bd 71 ef 81 bd
       -0.0686591 -0.015743578 -0.041689683 -0.06344498
000270 ab 36 19 bc a4 9a f9 bb 1e d5 bf 3d 9f 88 60 3d
       -0.009351413 -0.0076173116 0.09366821 0.054817792
000280 5c e5 19 bd fa d5 84 bc 8d 7e 92 bd e8 51 b7 3d
       -0.03757225 -0.016215313 -0.07153044 0.08951169
000290 62 61 31 3d c0 ac 50 bc e0 6a 74 3d 05 a2 00 bc
       0.043305762 -0.012736499 0.059672236 -0.0078511285
0002a0 50 60 27 bc b0 38 75 3d fd 74 52 3d ae 02 dc 3b
       -0.010215834 0.059868515 0.0513811 0.0067141866
0002b0 00 cb c5 3d b8 3d 06 3e ac 77 5e 3d c4 ea d9 bb
       0.0965786 0.13109481 0.054313347 -0.0066503007
0002c0 c3 d3 51 bb 61 68 f7 bc 4e 80 8f 3d 45 42 82 3d
       -0.003201709 -0.030201139 0.07006894 0.06360296
0002d0 39 48 b9 3c 76 e9 b0 bb 0d 63 4f bd ab bf 74 bd
       0.022617446 -0.0053989245 -0.05063157 -0.0597531
0002e0 34 d5 a4 bc 98 b7 b4 3c 15 8c 3c 3c a7 74 3a 3d
       -0.020121194 0.0220602 0.0115080075 0.045521405
0002f0 3b e3 b5 bb 11 c7 ca ba e7 41 02 bd 08 7e 2c 3d
       -0.0055507696 -0.0015470703 -0.03180113 0.04211238
000300 5a 7c c6 3c 9e 7e 84 3d 1f 85 f4 3c 99 0c 74 3c
       0.024229217 0.06469463 0.029848633 0.014895582
000310 70 2d 30 bc 3c 18 43 bc f9 1a 64 bc 04 e3 46 3d
       -0.010753021 -0.011907633 -0.013922446 0.048556343
000320 27 10 4c 3c 9f 38 82 bd 39 20 82 3c 7d 7c a6 3c
       0.012455023 -0.06358456 0.015884506 0.020323033
000330 d2 45 ab bd ac b8 ee 3b c1 f3 01 bd fc ec 12 bd
       -0.083629265 0.007285198 -0.031726602 -0.035870537
000340 ac 6d 4a bd fc 05 90 bd da 1d a3 3d 7a 0d 94 3d
       -0.049420998 -0.070323914 0.07964678 0.07229133
000350 92 a4 e2 3c 6c 40 31 bd 8e 35 98 3d 3c 1e 83 3d
       0.027666364 -0.043274328 0.0743209 0.06402251
000360 e5 b3 38 3d 05 c2 ea 3d ff 88 9e 3d ec 59 eb 3c
       0.045093436 0.114627875 0.07740974 0.028729402
000370 67 5c 22 bd 6b cc 9e 3d ca 7b 08 3b 95 8f 6c bd
       -0.039638903 0.077538334 0.0020825737 -0.057754118
000380 d6 a7 9c bd 23 21 a7 3c 1f 07 dc bc f7 db 2b bd
       -0.076492 0.020401543 -0.026858864 -0.04195782
000390 be 15 2b 3d 0f 22 44 bc b6 82 3c 3d 0c 2f 7f 3d
       0.04176878 -0.011971011 0.046023093 0.062300727
0003a0 a1 b5 0a 3d 95 c2 f5 bc c4 b8 50 bd 4b 24 34 bc
       0.03386462 -0.03000001 -0.050957456 -0.010994981
0003b0 3c 5f a1 bc e4 67 41 bd 6e c6 0a 3c 49 b0 27 3c
       -0.019698732 -0.04721822 0.008470161 0.010234901
0003c0 e6 c5 ac bc e8 5a 6e 3d fd 1e 54 bd e1 b2 91 bd
       -0.02109046 0.058192164 -0.051787365 -0.071141966
0003d0 e1 4b a0 bc 68 c3 13 bc 30 9c 8a bd a6 d9 89 bc
       -0.019567432 -0.009018756 -0.06768072 -0.016827416
0003e0 74 1e 67 3c 8c d7 b2 bd 8d 6f 26 bc 61 8a f6 3c
       0.014106382 -0.087325186 -0.010158432 0.030095281
0003f0 94 2d 93 3d 02 a4 84 bd 66 2b 42 3d da 11 8d 3c
       0.07186428 -0.064765945 0.04740467 0.017220426

conv2.bias f4 [20]
000000 1d ea 95 bd ef ee 0b 3d 65 1e 76 3c ce 64 9f bc
       -0.07320044 0.03416341 0.015021895 -0.019457247
000010 11 5f 7f bd 97 c3 32 3d a8 0c cd bc 2e 3e 8e bd
       -0.06234652 0.04364356 -0.025030449 -0.069454536
000020 23 3e 6c 3d 91 a3 b7 bc 8c eb 96 3c 80 37 46 bd
       0.057676446 -0.022416862 0.018422864 -0.048392773
000030 98 9c 4a bd 71 d5 27 3c 71 53 4b bd 71 92 a7 bc
       -0.049465746 0.0102437595 -0.049640123 -0.02045557
000040 a5 6b 29 bc b0 e7 e9 bc c6 79 54 bd 22 d3 f7 bc
       -0.010340606 -0.02855286 -0.051873945 -0.030252043

fc1.weight f4 [50, 320]
000000 7c e4 91 bd bb 4e 50 bc 73 2c 79 bd 1c 95 10 3d
       -0.07123658 -0.012714083 -0.060833406 0.03529845
000010 ec 68 5e bc c4 05 87 bd b2 13 02 bd ea 17 fc 3c
       -0.01357482 -0.065928966 -0.031757064 0.030773122
000020 94 1a 14 bc 91 7b 8e bc 1b 60 5a 3d 8a df bf bc
       -0.00903954 -0.017392905 0.05331431 -0.023422021
000030 fb 6e ec 3c eb ea d2 3d bc 8e 59 3b ed 88 34 bd
       0.028861513 0.10298713 0.0033196649 -0.044075895
000040 1f 56 81 bc 5b 5f 77 3c 1e 05 27 3d c0 4c 5a 3d
       -0.015788136 0.015098418 0.040776365 0.05329585
000050 b9 f2 5f 3d b2 90 1f 3d f6 17 54 bd 5c e2 07 bd
       0.054674838 0.03895635 -0.051780663 -0.033174857
000060 d8 f7 92 bc 9f dd 19 3c 7a e6 2d bd de 2c 93 3b
       -0.017940447 0.0093912175 -0.042456128 0.0044914326
000070 bf 87 69 bc 12 76 62 bc ba 33 58 3d 8d 15 41 3d
       -0.014253556 -0.0138220955 0.052783705 0.047139693
000080 b7 16 55 bc c6 ba a9 bc 5b 5b b5 bc d6 a1 0c 3b
       -0.013005904 -0.020718943 -0.022138288 0.0021458766
000090 17 0e a7 bc 7b 46 40 bd a8 b2 ae bd ee 45 3e bd
       -0.02039246 -0.046942215 -0.0853017 -0.04645341
0000a0 ee d6 49 bd 05 eb 90 3c 46 e4 57 bd df 9e 9d bd
       -0.04927724 0.017690191 -0.052707933 -0.07696318
0000b0 ba 28 ba 3b b5 06 9e 3d c2 38 18 3d 40 6a 4d bc
       0.0056811245 0.07716123 0.037163503 -0.012537539
0000c0 b9 9e 11 3d 6c 20 ab bb 16 5a 5c b9 0d 4a 0f 3d
       0.03555176 -0.005222371 -0.00021014395 0.03498273
0000d0 55 e5 b3 bd e0 47 53 3c 8b b0 ae bc ee 10 d0 bc
       -0.08783976 0.012895554 -0.021324417 -0.025398698
0000e0 bd f5 2c bd a7 8b 9d bc 0f ba 6c bc 16 7b 38 bd
       -0.04222654 -0.01923163 -0.014448657 -0.04503926
0000f0 02 86 84 bd 67 85 17 3d 0b 4f 73 3d 84 dc a8 3c
       -0.064708725 0.036992457 0.059401553 0.020612963
000100 e9 2e 51 3d 54 9f 19 3d 8a d9 78 bc d5 db 74 bd
       0.051070128 0.037505463 -0.015188584 -0.05977996
000110 7a af bf 3c dc 02 c6 bc f1 80 9c bc d4 b2 38 bd
       0.023399103 -0.024171285 -0.019104453 -0.04509242
000120 a1 61 d5 bd b1 2c a8 bd b9 11 a8 bb 4f 0f 58 3c
       -0.10419012 -0.08211649 -0.005129066 0.013187244
000130 da 95 83 3d 63 76 9c bc e8 47 bc 3c b1 3e 92 3d
       0.06425066 -0.01909942 0.022983506 0.07140864
000140 1f f9 31 3d 90 76 62 3d bc f2 10 3d d8 00 79 3d
       0.04345047 0.05528885 0.03538774 0.06079182
000150 37 9c 2a 3d fc 9d 5b bc ed e5 75 bb 87 de 59 3b
       0.041652884 -0.013404366 -0.003752108 0.003324421
000160 8c 0d 96 bd c5 92 8f bb 2a 40 c6 bc 00 29 b1 bd
       -0.073268026 -0.00438151 -0.024200518 -0.08650398
000170 38 83 af bc 28 68 21 3c ac a5 c3 bb 53 7c 3f bb
       -0.021424875 0.009851493 -0.0059706774 -0.002921839
000180 60 e1 3d 3d f7 e9 ae 3c ca df 28 bc 2a 43 77 3d
       0.046357512 0.021351798 -0.010307262 0.060366787
000190 0a 26 c7 3c cf bc 7a ba e8 3a 64 3b 78 f0 9d bd
       0.02431013 -0.0009564878 0.003482515 -0.077118814
0001a0 48 44 f7 3c cc e0 7b bc 4e 8c 13 3c 9a 9c 65 bd
       0.030183926 -0.01537342 0.009005619 -0.05605755
0001b0 02 c4 d5 bc 16 28 bb 3c 2f 59 62 3d 8b 61 43 3d
       -0.02609444 0.022846263 0.055260833 0.047700446
0001c0 5f c1 53 bc 7c 74 96 3d 6e 49 89 3d 5f 02 37 3b
       -0.012924521 0.073464364 0.06703459 0.0027924997
0001d0 25 49 0d b9 14 c6 9d bb 21 52 c7 3b 95 41 58 bd
       -0.00013474056 -0.0048148725 0.0060827886 -0.05279692
0001e0 42 bc a7 bc 4b 13 33 bd d0 eb ef 3c fc 0f 89 3c
       -0.02047551 -0.04371957 0.029287249 0.016731255
0001f0 b5 ce 18 bd 22 e3 5a bc ad 49 9b 3c 58 5e f3 3a
       -0.037306506 -0.013359817 0.01895603 0.0018567545
000200 a5 68 bd bc 28 18 08 3d b8 2e 87 bc d6 de 6d bd
       -0.023121187 0.033226162 -0.01650177 -0.05807384
000210 b2 b5 d4 3c 58 65 11 3c c0 56 20 bc 9b c3 ee 3b
       0.025965545 0.00887426 -0.009786308 0.0072865016
000220 3e 74 02 3b 59 af b0 3b 99 d7 23 bd aa 0e f0 3c
       0.0019905712 0.005391997 -0.04000053 0.029303867
000230 df e4 d6 bc e8 22 19 3d 86 cd d8 bc de f2 41 bc
       -0.026232181 0.037386805 -0.026465189 -0.011837689
000240 6d 9c 1b 3c ad a9 d4 3d 06 23 0b 3d ff 49 12 bd
       0.009497744 0.103839256 0.033968948 -0.0357151
000250 0e be 6a 3b 91 fa 85 bb fe 8b 81 3d be de 0c bd
       0.0035818848 -0.0040887077 0.063255295 -0.03439211
000260 d1 de 33 3c 06 3d cb bd cf 8b 2f bc ea 3b 72 3d
       0.010978417 -0.09923749 -0.010714485 0.05913917
000270 39 43 bf bb 08 8b 79 bd cb 5a a5 bd 77 07 a0 bb
       -0.005836871 -0.060923606 -0.08073958 -0.0048837024
000280 ab 55 2f 3d 09 eb b1 3d ce 72 a6 bb e4 6a 71 3d
       0.04280631 0.086874075 -0.0050796038 0.05893983
000290 84 15 05 3b 96 8f 07 bc d8 c9 20 bb dc 15 0c bd
       0.0020307014 -0.00827398 -0.002453437 -0.034200534
0002a0 b0 c5 de bc 35 7d c3 bc 76 77 23 bc 84 3e 99 bd
       -0.027193874 -0.023863414 -0.009977212 -0.07482627
0002b0 b7 8f 94 3c 34 8e b9 bb b0 30 75 bc 14 24 86 3d
       0.018134935 -0.005662704 -0.014965221 0.0654985
0002c0 6d 52 0a bd 1d 8a b9 bc b4 a9 e0 bc 3a dd 3f bd
       -0.033770014 -0.022648865 -0.02742467 -0.046841837
0002d0 61 5d 0e 3d 09 72 35 bd 5a 1b 22 3d 02 c9 94 3d
       0.03475702 -0.044298206 0.039576866 0.07264902
0002e0 32 7c 24 bc 91 15 31 3d e5 a2 3d 3d 90 30 0b 3d
       -0.010039376 0.043233458 0.046297926 0.03398186
0002f0 6d 97 27 3d 41 30 05 bb b6 c6 3c bc 65 b7 f9 bb
       0.040915895 -0.002032295 -0.011521986 -0.0076207393
000300 d1 9f f2 3c be 12 9b 3c cd 4f dc 3c fe a8 81 3d
       0.029617222 0.018929835 0.02689352 0.06331061
000310 c0 f6 c4 bd 8a c8 8d ba 0e c4 07 3b 96 4b 26 3d
       -0.09617376 -0.0010817212 0.0020716223 0.040599428
000320 86 eb e7 3c 3f fa 83 3c 9d 61 3f bd 43 c1 7f bd
       0.028310549 0.016110538 -0.04672395 -0.062440168
000330 10 e9 11 bc 3f e8 9e bc 6d 55 38 bd 85 25 e4 3d
       -0.008905664 -0.019397853 -0.045003343 0.11139969
000340 1c c7 47 3d be 2e 65 3d 30 94 2c bc f8 e7 3a 3d
       0.04877387 0.05595278 -0.0105333775 0.04563138
000350 54 3c 9a 3d 79 22 38 3d 47 39 8b bc d1 f8 45 bd
       0.07531038 0.04495475 -0.016995085 -0.048332993
000360 e0 b9 25 3d de 7a 15 bd 7b e0 e6 bc 8d 8a 1e 3c
       0.040460467 -0.03649413 -0.028183213 0.009676588
000370 2f d2 db bc 35 09 51 bc ad 40 1c bc db 6b 17 3d
       -0.026833622 -0.012758543 -0.009536904 0.036968093
000380 86 8a 56 3c c8 46 4b 3d 7e 0b 30 3d 39 96 9d bd
       0.01309455 0.04962805 0.04297971 -0.07694668
000390 a6 15 49 bd b7 f6 04 bb 2b 79 30 bd 37 a6 ee bc
       -0.04909291 -0.0020288655 -0.043084305 -0.029131992
0003a0 b6 9d 53 bb 0f e4 79 bd 0b b9 71 3c b4 a3 b8 3d
       -0.0032290048 -0.06100851 0.01475359 0.09015599
0003b0 9f 1e 97 3d b2 10 a5 bb a6 e3 71 bd d5 02 2e bc
       0.073788874 -0.0050373906 -0.059054993 -0.010620792
0003c0 d8 5b 81 bd 9f b4 8a bd d0 6b 02 3d 9b 5f b9 3c
       -0.06316346 -0.06772732 0.0318411 0.022628596
0003d0 d1 89 98 bc 02 d5 a2 bd 17 6f de bc ed 77 16 bb
       -0.018620403 -0.07950784 -0.027152581 -0.0022959665
0003e0 a9 6a 28 bd 01 1d 57 bc 3e 59 a8 3b 0a 0e 2a 3c
       -0.041117344 -0.013129474 0.0051375916 0.010379324
0003f0 3d 71 c5 3c 15 17 0d 3d 8b 8a 52 3d 3e f7 6a 3c
       0.024101848 0.03444584 0.051401656 0.014341174

fc1.bias f4 [50]
000000 37 d4 04 3d 61 0b 71 3d a6 28 41 3d c0 e4 16 bd
       0.032428946 0.058848742 0.047157906 -0.036839247
000010 ac 9a 6e 3d 32 92 7c bd de 22 de bc 33 86 3a 3d
       0.058252975 -0.06166286 -0.027116235 0.04553814
000020 9d 30 46 3d 49 3d 73 3d c6 e5 46 3d 84 02 42 3c
       0.048386205 0.059384618 0.048558973 0.01184142
000030 7a a6 04 3d ae 84 23 3c 7a 2a 1b bd 1e 89 d7 bc
       0.032385327 0.009980364 -0.037882306 -0.0263105
000040 91 26 56 bb 99 9e 8b 3d 02 f0 20 3d 38 2d 1f 3d
       -0.0032676796 0.068173595 0.03929139 0.038861483
000050 84 de 84 3c 29 a1 69 bd 07 69 40 bd 42 ce 1a 3a
       0.016219385 -0.05703846 -0.046975162 0.00059053686
000060 0b 84 87 3d 18 d7 44 bd 50 f2 b0 3c 73 e7 8b 3d
       0.06616982 -0.048056692 0.021599919 0.06831255
000070 7c d8 5e bc 49 a7 27 3c e0 10 2d 3d 37 69 c9 3b
       -0.013601419 0.010232755 0.04225242 0.006146576
000080 0a 4d 02 3d c1 c2 f8 bb ea 75 de bc bd 35 2f bd
       0.03181175 -0.007591576 -0.027155835 -0.04277586
000090 a0 fc 00 3d 5d 8a 19 bc ac 44 78 3d 85 7a 0a 3d
       0.031490922 -0.009371367 0.060612366 0.03380825
0000a0 e7 2b 60 3d 8e 7a ac 3d 40 db 16 bc 3f c5 9f bc
       0.05472937 0.08421813 -0.009207547 -0.019503234
0000b0 8e 53 94 3d b0 b8 57 3d e8 3f a8 bc cf 5a fc 3c
       0.07242499 0.052666366 -0.020538285 0.03080502
0000c0 97 b5 5b 3d 1c 18 97 3b
       0.053639974 0.0046110284

fc2.weight f4 [10, 50]
000000 ed 61 07 3e dc ac e9 3c 8d 6e 14 3e 7a 78 43 be
       0.1322095 0.028524809 0.14495297 -0.19088927
000010 14 3e 52 3e 9e 4a 56 bd 92 e9 e1 3d cf b6 18 be
       0.20531493 -0.052317254 0.11030878 -0.14913486
000020 ee 64 84 be 30 15 3b be 2b d6 77 3e 65 0e 68 be
       -0.25858253 -0.18269801 0.24202792 -0.22661741
000030 1b a5 95 bd f7 db 16 3e d2 15 80 be 21 a7 de 3d
       -0.07306882 0.14732347 -0.25016648 0.10871721
000040 88 56 a6 3d 28 e6 4d be bc 24 0f 3e a6 30 51 3e
       0.08121973 -0.20107329 0.13978857 0.20428714
000050 ad e3 f5 bd b3 a9 bb 3d bb 7d e5 3d 88 57 9e bd
       -0.12006316 0.09163227 0.11205622 -0.07731539
000060 77 b2 43 be f2 39 e5 3d 32 a3 d0 bd 08 0a 82 3e
       -0.19111048 0.11192693 -0.10187377 0.25398278
000070 cd dd 4b 3d ac c0 10 3e cc 1b ff bd 9b f8 66 be
       0.049772073 0.14135998 -0.12456474 -0.22555773
000080 21 55 33 be 16 ea f4 3d 85 d7 d3 bd 40 11 0f be
       -0.17512943 0.11958711 -0.103438415 -0.13971424
000090 74 26 1e 3e cd 1d 24 3e 26 7d af bd 77 e4 5e be
       0.15444356 0.16026993 -0.08568792 -0.2176684
0000a0 0a 94 28 be 75 64 0a 3d b9 3a 70 3e 61 32 ca 3d
       -0.16462722 0.03378721 0.23459901 0.0987289
0000b0 2e 92 6f 3d ba 03 06 be be 3e e1 bd d6 5f f3 3d
       0.058489017 -0.13087359 -0.10998295 0.11883514
0000c0 50 9b dc 3d 1b 8b d9 bd 72 a8 32 be d8 3a 1f be
       0.10771811 -0.106222354 -0.1744707 -0.15549791
0000d0 c3 fe 51 be fb 09 b1 3d fa eb 70 3d 5a 84 02 be
       -0.2050734 0.08644482 0.058818795 -0.127458
0000e0 10 3e 4a be ac 40 d6 3d 83 58 55 3e 45 fb 14 be
       -0.19750237 0.10461554 0.20834546 -0.14548977
0000f0 95 4f 98 bc 5c 61 c6 3d de 53 c2 bd fa c9 92 be
       -0.018592635 0.096865386 -0.09488653 -0.2866972
000100 4a 84 5b be a1 c3 fd 3d 2b 80 70 be f5 47 4c 3e
       -0.21437183 0.12390829 -0.23486392 0.19949324
000110 73 96 e3 bd 3f 32 5e be fc 13 17 be a7 14 b1 bd
       -0.1111268 -0.21698855 -0.14753717 -0.08646517
000120 dd 0d 10 3d b7 e2 30 be de 62 48 3e f3 08 ca bd
       0.03516947 -0.17273985 0.19568965 -0.09864988
000130 a5 db 52 3e 4e 72 44 3e ea d5 59 3b ba 35 84 3b
       0.205916 0.19184229 0.0033239075 0.004034725
000140 84 03 18 3e 64 82 ef bd 48 69 6c 3e 2b 4b 17 3e
       0.14845091 -0.11694792 0.23087037 0.14774768
000150 ab 28 1b be 33 b4 1d bd f1 6c 5d be 25 51 ee 3d
       -0.15152232 -0.03850193 -0.21623589 0.11636571
000160 29 94 5a 3e df 4e 27 be 36 2d 16 3e 23 d8 00 3e
       0.21345581 -0.1633868 0.14665684 0.1258245
000170 98 70 22 be 71 e6 01 3e 68 80 1b 3e 9b ed 0b 3e
       -0.15863264 0.12685563 0.15185702 0.13664858
000180 2e 33 1b be 26 71 5b be 18 68 72 be 1c e0 c1 3d
       -0.15156242 -0.21429881 -0.23672521 0.094665736
000190 c4 1f cc 3d 6f 16 3b 3e ed d0 28 bc 84 83 f6 3d
       0.09966996 0.18270276 -0.010303718 0.12036803
0001a0 c5 e0 70 bc aa 97 7a 3d 92 73 ba 3d 2c c4 69 be
       -0.014702027 0.061179794 0.091040745 -0.2282874
0001b0 da 05 16 bd fb 5a 2f be 7f 3b 89 bc b9 5a cc 3d
       -0.036626674 -0.1712455 -0.016752003 0.099782415
0001c0 ed b5 03 be 0a 92 cc 3d 9a c5 81 bd 62 48 26 3e
       -0.12862368 0.09988792 -0.06336518 0.1623855
0001d0 cf 62 3c bc 55 f6 d9 bd ff 25 64 3e be 71 85 bd
       -0.011498167 -0.10642687 0.2228012 -0.06515835
0001e0 7c 93 7f bd 79 3d 92 bc b2 38 87 3d 3c 73 2c bd
       -0.06239651 -0.017851578 0.06602611 -0.042102084
0001f0 25 a3 d7 3d fb bb 39 3e b5 e4 48 be b4 69 5d bc
       0.10529164 0.18138115 -0.19618495 -0.013513971
000200 ad f9 37 3e 79 4c 1e bd 9a 48 5b 3d d0 66 e7 bd
       0.17966338 -0.03864715 0.053536035 -0.11298907
000210 ac 17 6b 3e 56 46 25 3e 9d c4 27 bd 89 85 ec 3d
       0.22958249 0.16140112 -0.04095899 0.11548907
000220 12 3e 19 3e e0 8f 13 bd a4 ca 34 3e b9 20 94 3d
       0.14965084 -0.03602588 0.17655426 0.07232804
000230 15 d4 73 3d fe a1 39 be 47 52 4d bd 9d 29 31 be
       0.05952843 -0.18128201 -0.050127294 -0.1730103
000240 f2 81 f8 bd 8b bb 1d be 52 69 b3 bd cd 72 14 bd
       -0.1213416 -0.15403573 -0.08760323 -0.036242295
000250 d9 36 08 be 06 06 38 3e ab 3d ba 3c e1 34 f7 bd
       -0.13302173 0.17971048 0.022734484 -0.12070633
000260 76 71 12 be 76 d7 dc 3d 1b 39 ba bd 8a a5 07 3e
       -0.14301094 0.107832834 -0.09092923 0.13246742
000270 90 ee f2 3d cc 12 53 be 39 7d 55 3e c2 90 29 3e
       0.118619084 -0.20612639 0.2084855 0.16559127
000280 64 41 ff 3d d7 97 c8 bd d1 80 73 bd 7a 7f e0 bd
       0.12463644 -0.09794586 -0.05944902 -0.10961814
000290 eb f8 e3 bd 32 8d 13 3e 55 a5 76 3d 57 3d 24 3e
       -0.11131462 0.1440933 0.060216267 0.16039024
0002a0 99 fe 85 bd 29 d0 c0 3c a8 f3 ce bd f1 f4 6f bc
       -0.06542701 0.023536758 -0.101050675 -0.014645801
0002b0 a5 39 0c bd 70 09 79 bd d1 f1 13 3e f6 c1 0c 3e
       -0.03423466 -0.060800016 0.14447714 0.13745865
0002c0 91 90 d0 bd 67 01 f7 bd 2a 3f 0e 3e 90 66 2c 3c
       -0.10183824 -0.12060814 0.13891283 0.0105225
0002d0 4c be 3a be 63 25 c3 3d 6d 21 c9 3c a3 ee ea 3d
       -0.18236655 0.09528615 0.024552071 0.114712976
0002e0 c5 53 36 3e 7f 16 0f 3e 3c 1f 54 3d c3 b4 fc bd
       0.17805393 0.13973425 0.0517876 -0.12339165
0002f0 b5 55 2f be b6 fb f1 3d c1 3e 11 3e 97 06 bf bd
       -0.17122538 0.11815588 0.14184095 -0.09327429
000300 3c 7c 41 3d 9a 8a 52 be 6a fa 72 be ec 05 36 3e
       0.04723762 -0.20560685 -0.23728338 0.17775697
000310 52 88 a1 bd c5 a9 22 3e 9f 54 af bd 93 d4 cf bd
       -0.07887329 0.15885074 -0.08561062 -0.10147967
000320 c7 83 21 bd f4 fd 78 3e e2 45 03 3e b2 01 1d be
       -0.039432313 0.24315625 0.12819627 -0.15332678
000330 23 28 e9 bd 1a b1 24 be 9b bc 0f 3e aa f7 ea 3c
       -0.113846086 -0.16083184 0.14036791 0.028682549
000340 88 e0 0f be c3 96 2f 3e cc 19 f2 bd b1 8a f3 bd
       -0.14050496 0.17147355 -0.118213266 -0.11891688
000350 b9 e9 49 3e c1 d4 00 3e 39 af 44 3e 34 cd 18 be
       0.19718064 0.12581159 0.19207467 -0.14922029
000360 1f d6 8a be fc 9a 59 3e ec 47 da bd 45 59 d8 bd
       -0.27116486 0.21250528 -0.10658249 -0.10563902
000370 08 5a 3a 3e 18 5f 62 bd bd 1a 5b bc 88 80 b2 3d
       0.18198407 -0.05526647 -0.013373074 0.08715922
000380 ef 45 d9 3c 39 1f 47 be f2 8a 21 3e cd ea 64 bd
       0.026522605 -0.19445504 0.1577566 -0.055887986
000390 68 80 79 be 18 10 51 bd 06 2e 11 3e 7d 15 fd 3d
       -0.2436539 -0.05104074 0.14177713 0.12357614
0003a0 24 d9 22 be 85 8c f0 bc 1d df 01 bc bb e4 59 be
       -0.15903145 -0.02936388 -0.0079267295 -0.2127866
0003b0 87 07 b5 bd 6f 04 3a 3d 3c 7e 8e 3e 65 c4 2d 3e
       -0.08839326 0.045414384 0.27830684 0.1696945
0003c0 72 c4 f6 bd ea 80 13 be 05 c7 1e be 35 a2 62 be
       -0.12049188 -0.14404646 -0.15505607 -0.2213219
0003d0 29 e2 ee bd db dd c0 3d 69 fd 62 bd 7a f9 5b be
       -0.116642304 0.094173156 -0.055417452 -0.21481887
0003e0 84 c0 61 3e 86 e1 44 3e dd ae 27 bc c7 95 be bd
       0.22046095 0.19226655 -0.010234562 -0.093059115
0003f0 07 2c c7 3d be 95 6f be 94 b1 ac bd c4 61 29 3e
       0.097251944 -0.23396966 -0.08432308 0.16541201

fc2.bias f4 [10]
000000 a0 bc ef 3b af 30 79 3e b8 54 f1 bd 04 8b 0e bd
       0.007316187 0.24334978 -0.11783737 -0.034800544
000010 db bf 0b 3d 40 29 12 3d 66 fc 45 3d ff b4 65 be
       0.034118515 0.03568387 0.04833641 -0.22432326
000020 8a 2c 0b 3b eb 6c b4 3c
       0.0021236264 0.022024592
